stanza_resources/en/mwt/combined.pt (torch_old, 615741 bytes, 18 tensors)

embedding.weight f4 [74, 50]
00000000: 0098 5dbf 3061 cabd 684c 273f d8d8 793e
00000010: ecf9 663f 9080 843e 101a 583e 3836 97be
00000020: 48b3 313f ca3a 153f f096 4ebf fe43 583f
00000030: b4a1 97be aa68 0abf d43c d53e 00f2 1d3f
00000040: 2c55 673f a0e7 7dbd 407b 56be c035 983c
00000050: 5498 bb3e 4860 e6be 885e 6f3e 7642 183f
00000060: 70f2 743f d2bc 22bf dc2c 503f 48a4 5a3f
00000070: 8802 62be 4852 72be 20c5 b2be eee0 5d3f
00000080: ba20 3ebf e815 f5be 1e5b 76bf 9262 2bbf
00000090: 80a8 67bd 7a29 2b3f 102a d8be fa76 43bf
000000a0: c66f 013f a8be 88be 80c9 d03d 2083 933e
000000b0: 82c4 76bf c463 86be 6c4e 53bf f825 2bbf
000000c0: 9a92 253f 7614 163f 78d1 6cbf aad3 10bf
000000d0: c827 3d3e 3044 e53d b807 47be 7c2d 2fbf
000000e0: cc3b f63e 00e3 373f 4e53 0cbf 4405 e63e
000000f0: f41b 08bf 9863 533f 3a14 42bf 642b f03e
00000100: c4c9 c23e 40df 6ebe c828 0e3f 625a 16bf
00000110: cc84 f93e 0654 3bbf da59 7bbf cac5 6dbf
00000120: c01c f93e 3892 b83e ec4a 5bbf 8415 32bf
00000130: 2cfb 103f 568e 10bf 3cba f6be ec17 8d3e
00000140: 48ef 2d3f 785a 61bf 5448 5bbf d06c b43e
00000150: 426f 08bf 1e0e 37bf 449a 4b3f 04d9 eabe
00000160: 4c6e 403f 0016 f83e 2822 7abf 589e dc3e
00000170: ac3a f93e b06d e53d 700d 05be 28d2 073e
00000180: 4054 4f3d 5cbc e3be e8de 003f 0824 8b3e
00000190: 6bca 873f e0d1 1dbd 0469 443f b473 e6be
000001a0: 59ac 14bf 785f 303f e3d8 773c 263d 183d
000001b0: 750c 09bf a53e dd3e 3a64 70bf 8d4b 983c
000001c0: 68ba e9be 789a 55bf aeea 78bf d578 083f
000001d0: 66da 1b3f 89d5 9e3d cd90 74bf b7c5 103f
000001e0: 9a5c 013e 84cd d9bd d303 8d3f 9819 d6bd
000001f0: 7fcc a23d fa0b 433f 0272 473f a986 ac3e
00000200: 2d68 4bbf 35a3 30bf 78d8 c23e a0e4 56be
00000210: 8011 6e3f 398b a93e 5c9c 623e a206 b83e
00000220: 20df 0e3f c1ea 5dbf 8744 053f ec4d 383f
00000230: 3e15 9abd ade7 553f 1578 67bf 171e 35bf
00000240: c869 3f3f e52d b9bd f078 83bf ffd6 e63d
00000250: 0126 a23e 6406 123f ba98 37bf 3364 823f
00000260: e4b7 b83e daf4 273f 5e39 afbe 0284 943e
00000270: 4cb6 44be e72a 1f3f 7d0f 8cbf f753 31bf
00000280: 8e24 093f 03e6 3abf 16bf 66bf 5e93 1bbf
00000290: c287 7d3e e174 67bf 907a be3e 6062 64bf
000002a0: 42ac 31bf 237c 463e 7ba3 1abf 4ad5 6a3f
000002b0: d5eb 8cbf 8439 083f f79f 6f3e 25e5 8b3e
000002c0: d641 023e 4f19 513f f11c 36bf 8ba7 81bf
000002d0: 3b1a a43e 1c55 34bf f33f 19be 5a1b 763f
000002e0: af07 9ebe 4e62 3c3f 12e7 8c3f de63 2a3d
000002f0: 41c2 4f3f 6256 f03e 7672 38bf 776a 86bf
00000300: af7a 9b3e f4e4 7d3f 444b 78bf c463 173e
00000310: 6d89 8cbf ace2 3bbf a629 a53e 147b d63e
00000320: 426d 55bf 088b 1abe 6e6e ed3d 7667 b7bd
00000330: f133 9dbe 3b6b 6dbf 1df1 4fbe 8160 32bf
00000340: d4ef 22bf 328a 0bbf 893c 273f a217 b03e
00000350: 392e 15bf 86cf 7cbf 9624 a2be 3807 7bbf
00000360: 1658 943e 12ae 833f 85ca d7be 8b36 303f
00000370: 04ca 46bf a83c 76bf 32b2 40bf 8510 1bbe
00000380: ef5d 833f 1fa0 1b3f d7bb 773f ee98 d43e
00000390: 8438 54bf 5f46 57bf 7b19 1dbf b9c3 49bf
000003a0: a37d ca3e 9615 35bf 1a7e 08bf eda4 803e
000003b0: cf27 593e 75f7 0abf 9b19 87bf 9986 cebe
000003c0: b64f 0f3f 60fc 6d3f cb36 713f 68c0 333e
000003d0: 9ecd 2a3d 4076 20bf c69e 2abf 7587 643e
000003e0: 7faf 51bf 12cd c9bd 753f 5fbe a1b2 963e
000003f0: 2694 f7be 7920 123e 7b6f 0dbf 59dc 67bf
-0.8656006 -0.09881818 0.6535096 0.24399126 0.902251 0.25879335 0.21103692 -0.29533553
0.69414186 0.5829283 -0.8069906 0.8447875 -0.29615557 -0.54065955 0.4164797 0.6169739
0.90364337 -0.061988473 -0.20945454 0.018580317 0.36639655 -0.44995332 0.23375905 0.5947641
0.9568243 -0.63569367 0.8131845 0.85406923 -0.22071278 -0.236642 -0.3491602 0.8667134
-0.74268687 -0.47868276 -0.96232784 -0.6694728 -0.05655718 0.66860163 -0.4221959 -0.7635342
0.5056118 -0.2670796 0.10194683 0.28810978 -0.963936 -0.2624799 -0.8254154 -0.6685481
0.6467682 0.5862497 -0.92507124 -0.56572974 0.18472207 0.11194646 -0.19436538 -0.6842878
0.48092496 0.7183075 -0.5481461 0.44925892 -0.53167653 0.82573843 -0.75812113 0.46908104
0.3804456 -0.2332735 0.5553098 -0.58731663 0.48734128 -0.73175085 -0.9818398 -0.9287993
0.48654747 0.36049056 -0.85661197 -0.6956408 0.5663326 -0.5646719 -0.4818896 0.27557313
0.6794324 -0.8802867 -0.8565724 0.35239267 -0.53294766 -0.71505916 0.79532266 -0.45868695
0.751683 0.48454285 -0.9770837 0.43089557 0.48677576 0.11202562 -0.12993407 0.13263762
0.050617456 -0.44479644 0.5034013 0.27175927 1.0608648 -0.03853023 0.7672274 -0.4501015
-0.5807548 0.68895674 0.015127393 0.03716769 -0.5353463 0.43211856 -0.93902934 0.018590713
-0.4565003 -0.83438826 -0.9723309 0.53309375 0.60880125 0.07755572 -0.9553345 0.5655169
0.12632981 -0.10634902 1.1016792 -0.104541 0.07949161 0.7619015 0.7790834 0.33696488
-0.79455835 -0.68999034 0.38055778 -0.20985651 0.9299545 0.3311403 0.22129959 0.3594256
0.5580921 -0.8668633 0.5205769 0.719939 -0.07523583 0.83556634 -0.90417606 -0.7074904
0.74770784 -0.09041957 -1.0271282 0.11271476 0.3166962 0.57041 -0.7171742 1.0186828
0.36077797 0.6560799 -0.34223455 0.29006964 -0.19210166 0.6217484 -1.0942227 -0.69268745
0.53571403 -0.7300722 -0.90135324 -0.6077174 0.24758819 -0.9041272 0.37202883 -0.8921261
-0.6940347 0.19383292 -0.604057 0.91731703 -1.100947 0.5321276 0.23400865 0.2732326
0.12720427 0.8167924 -0.7113791 -1.0129255 0.32051262 -0.70442367 -0.14965801 0.96135485
-0.30865237 0.735875 1.1008017 0.041599147 0.8115578 0.46940905 -0.72049654 -1.050124
0.30367038 0.9917748 -0.96989846 0.14784151 -1.0979439 -0.7339275 0.32258338 0.41890776
-0.8336984 -0.15092099 0.115933284 -0.089552805 -0.3070369 -0.92741746 -0.20306821 -0.69678503
-0.636472 -0.54507744 0.65326744 0.3439303 -0.58273655 -0.98754156 -0.31668538 -0.9805789
0.28973454 1.0287497 -0.42146698 0.68833226 -0.77652 -0.96186304 -0.75271904 -0.1514302
1.0263041 0.607912 0.96770996 0.41522926 -0.82898736 -0.8409175 -0.61367005 -0.78814274
0.39548978 -0.7073606 -0.53317416 0.25125828 0.21206592 -0.5428384 -1.0554689 -0.40337065
0.55981004 0.9296322 0.9422423 0.17553866 0.041699998 -0.62680435 -0.6664852 0.22317298
-0.8190841 -0.09853567 -0.2180155 0.29433158 -0.48355216 0.142702 -0.5524823 -0.905706

encoder.weight_ih_l0 f4 [200, 50]
00000000: dc32 e63a eeed fb3d ba2c f1bc ed5f 8c3d
00000010: 90de 30bd 58b0 923d 0cc1 293e 012a 4a3d
00000020: 838e c73d d3f1 7e3d 8f61 32be d871 ffbc
00000030: 2c04 893d 37e4 9a3d 2142 483b fd01 32bb
00000040: 794f 1b3e 5578 8dbd 7af2 c83d 47cd febd
00000050: a1d4 b83d 2052 8c3d 365f 933d 438e 89bd
00000060: 5703 aebc dccc eb3d 9fbb e83c 6d6b 8e3d
00000070: 9a3e a43d 5509 163e 989e ab3d 65b4 b0bd
00000080: 8ee8 9fbd c3c0 243d a048 553d fcd6 883d
00000090: fd25 1c3e 912d 9a3d c9be 48bd ad05 633d
000000a0: 374b 8abd f6f8 793d efdf 00be 58ed 8539
000000b0: fe9d 15be 9f8a 253d 9cbe 103c ccf3 4ebd
000000c0: ed26 c23d 017b 033e 8099 7c3d 0b4f 083e
000000d0: 55a1 38bd ba4f 893d 987b 933d 1bc0 423d
000000e0: be4c 21be 9c58 883d bb58 2abe 2624 0abe
000000f0: fa00 11be 090a e5bd da7e 1ebe 3b2e e9bc
00000100: 8707 36be ac37 043d ff21 273e 1dfd 263e
00000110: 821a 22be 7f8d 303e fba2 e8bd 1697 023e
00000120: 07c0 5ebd 0770 033e 8a77 043e 1e6f 293e
00000130: adf0 343d c77a f33b 058b 633c 61b7 30be
00000140: d2c5 6e3d b5f3 7a3a 41c4 a2bc f336 a13d
00000150: 3eff ffbd b136 723d 2ade 1e3e 38d9 05be
00000160: 89fd 123e 3465 8f3d d13e 91bc 128f c3bc
00000170: a35d 8ebd ae2b f43c 5a70 a0bd af95 003d
00000180: 14b3 30be 41be 12bd c76d 1f3d 6c46 623d
00000190: c769 a43d a0f4 0fbe 8eaa ec3d 299e edbd
000001a0: 0955 e0bd 1b90 41bd d7b4 67bb 8089 b4bc
000001b0: 60e4 c7bd e7ed 53bd a16a 11be e759 e13b
000001c0: 275b 04be 3be0 733c 6e3e b1bd cd00 e93d
000001d0: b126 413e 5b65 79bd 8089 5cbd 4cae 023e
000001e0: 9f93 6b3d 49b4 85bd 253b 753d 7e2c 0c3e
000001f0: 2cdf 06bd 15a4 5c3e 9371 0e3e 8007 ccbc
00000200: 8507 3ebe 5415 00be 0e6c 6e3e 566a 30bd
00000210: d5fa 193d 3bbb f23b 9692 0dbb 8c20 8b3d
00000220: a739 3f3d 18e6 70bd ff03 abbd 3ed1 27bd
00000230: bce7 6ebc 26d1 0b3e f8b7 00bd c03d 3b3d
00000240: f4db 90bd eb47 903d e430 843d f972 04be
00000250: a259 03be 66a4 29bd 496b 333d d9f8 14be
00000260: 6ed8 303e 39df e5bd 14aa 18be 5635 b1bb
00000270: cd39 95bd 97db 9a3d 34ac 2dbd b83c ccbd
00000280: 443e f9bd a29c 0dbc 41a5 e2bd ec51 1cbd
00000290: 374d 1dbe a2c8 ee3d dd75 5a3d 2c4c d73d
000002a0: a1ca b3bd 1d5c c2bc c2b4 d3bd 9299 e9bd
000002b0: 08a2 863d 48fb d1bd 0e25 9ebc 1330 383e
000002c0: 528c 723d cf11 5c3d c0a0 613c fdd8 cd3c
000002d0: d932 f8bd cb25 17be 0765 25bd 1f32 533d
000002e0: 1c89 8abd ac21 acbd 6078 c7bc 6069 2ebe
000002f0: 23c6 3a3d 7011 ac3d 49a5 c7bd a528 e73d
00000300: a162 cabc 0a04 873d e4a6 4f3e 433b c33d
00000310: 4757 febd 9cfd 183e 1080 bb3d 1435 273e
00000320: 4cd0 ab3d b527 803c 18f5 113e 9a5c 44bd
00000330: 30f2 3fbd 3167 2b3e b92e d9bd 5a4f 283d
00000340: a4cd 08be 9561 6c3d ecc5 803d d574 7cbd
00000350: 37a1 153b c66d 3bbe d656 0bbe 72c5 08be
00000360: b533 af3d 085c ce3d e2ca 52be ad5d 313d
00000370: 41bc 803d cba6 103e ec78 1d3e 320d 073d
00000380: 0420 743d 7598 eabc 8358 d33d 0f4c e1bc
00000390: 87b3 6fbd 4770 1abe e783 393e 786d 51bc
000003a0: 81f4 733e f8e0 943d 7438 aa3c a8fe 583e
000003b0: 3dee 3fbd c6f7 72bc 244d 383c 48e6 d0bc
000003c0: 5f5a dc3d 7f78 d53d 428d 863b 5c38 ccbc
000003d0: 238f 723c b722 76bc 72b1 b6bd f70c 033d
000003e0: d85e e4bc 18e8 9dbd ccd5 aa3d 418e edbd
000003f0: 8246 703d 0bd6 30be 3c7d 11be 68c6 373d
0.0017562765 0.12301241 -0.029440273 0.06854234 -0.043181002 0.07162541 0.16577548 0.049356464
0.09743979 0.06224234 -0.17420028 -0.031182215 0.06690249 0.0756306 0.0030556994 -0.002716183
0.15167035 -0.06907717 0.09811874 -0.12441497 0.09024931 0.068516016 0.071958944 -0.067165874
-0.021241827 0.11513683 0.028409777 0.069540836 0.08019753 0.14651997 0.08379859 -0.086281575
-0.07808028 0.040222894 0.052071214 0.0668163 0.15248866 0.07528222 -0.049010072 0.055425335
-0.06752627 0.061028443 -0.12585424 0.00025544572 -0.1461105 0.040415403 0.008834507 -0.05052547
0.09480081 0.12839891 0.061669827 0.13311402 -0.045075733 0.0670466 0.07201308 0.047546487
-0.15751931 0.06657526 -0.1663541 -0.13490352 -0.14160529 -0.11183555 -0.15478078 -0.028464427
-0.17776309 0.032279655 0.16321562 0.16307493 -0.15830424 0.17241476 -0.11359211 0.12752947
-0.05438235 0.12835704 0.12936226 0.16546294 0.04417484 0.0074304077 0.013888125 -0.17257454
0.058294125 0.00095730583 -0.019868972 0.07871809 -0.124998555 0.05913419 0.15514436 -0.13071144
0.14354528 0.07001725 -0.017730149 -0.023871932 -0.069514535 0.029805984 -0.07833929 0.03139275
-0.17255813 -0.03582597 0.03892305 0.05524294 0.08027988 -0.14058161 0.11555968 -0.11602432
-0.10953719 -0.04725657 -0.0035355592 -0.022038221 -0.09760356 -0.051740553 -0.14200832 0.0068771723
-0.12925397 0.014885004 -0.08654486 0.11377106 0.18862416 -0.060887676 -0.053842068 0.12761801
0.05751383 -0.06528527 0.059870858 0.13688847 -0.032927677 0.21546967 0.13910513 -0.02490592
-0.18557556 -0.12508136 0.23283407 -0.04307016 0.037592728 0.0074075735 -0.0021602265 0.06793317
0.04668584 -0.058813184 -0.083503716 -0.040971033 -0.014581617 0.13654003 -0.031425446 0.045713186
-0.07073203 0.07044967 0.06454638 -0.12934484 -0.12827161 -0.04141655 0.043803487 -0.14548053
0.17270061 -0.11224217 -0.1490863 -0.0054079695 -0.07286415 0.07561415 -0.042400554 -0.09972519
-0.12170079 -0.008643301 -0.11066676 -0.038164064 -0.15361486 0.116593614 0.05333506 0.105125755
-0.08778883 -0.023725564 -0.10337211 -0.11406244 0.06573874 -0.10253006 -0.019304778 0.17987089
0.05921585 0.05372792 0.013771236 0.025127882 -0.121190734 -0.1476051 -0.04037955 0.05156147
-0.06764433 -0.0840486 -0.024349391 -0.17032385 0.045599114 0.084017634 -0.097483225 0.11287049
-0.024705233 0.06592567 0.20278507 0.09532788 -0.124189906 0.14940494 0.09155285 0.16328841
0.08389339 0.015643934 0.14253652 -0.047939874 -0.046861827 0.16738583 -0.10604615 0.0410913
-0.13359696 0.05771025 0.062877506 -0.061634857 0.0022831687 -0.18303594 -0.13607344 -0.1335657
0.08554784 0.10076147 -0.20585206 0.043302227 0.062859066 0.14126126 0.1537816 0.03297157
0.059600845 -0.02863715 0.10319617 -0.027502088 -0.05852082 -0.15081893 0.18116723 -0.012782447
0.2382374 0.07269472 0.020778872 0.21190894 -0.04685806 -0.014829582 0.0112488605 -0.025500432
0.107594244 0.104233734 0.0041061947 -0.024929218 0.014804634 -0.015022925 -0.08920564 0.031994786
-0.027877256 -0.07710284 0.0834156 -0.115993984 0.05866099 -0.17269151 -0.1420793 0.04486695

encoder.weight_hh_l0 f4 [200, 50]
00000000: 3eca 4a3e d151 343e b2e9 7e3e f606 bd3c
00000010: 41b3 3f3e d324 e93d d3fa b0bd 2a3d 21be
00000020: b02b 533d a955 453e 7533 b63b b0cd f63d
00000030: 1dd2 8a3d 26a7 b63d f4e2 cb3d ad50 c0bd
00000040: dbe4 7d3e 3d48 113e 32c2 16be 69a7 cdbc
00000050: 4665 06be 263e f3bd a954 c43b b870 5ebd
00000060: c1e2 d6bd 2a98 3e3d acd7 803e 8e30 3abe
00000070: 0e66 943e e227 5cbd 09e9 243d 3388 1dbe
00000080: 16e7 143d 6d7b 543d 5af8 f3bd ba7c 263e
00000090: cc0c c63d 8878 5cbe 00f5 1ebd c37c 21bd
000000a0: 3255 9ebd cc7d 203d 42a6 033d 6506 39bc
000000b0: e167 0abd ee1b 2ebe be38 333e e80e 353c
000000c0: 1d6f a73d eeb5 7e3c 78da 95bb 4305 c93c
000000d0: e8c1 7ebd bf27 5cbe 901d 7ebb a784 86bd
000000e0: a034 ef3d bd11 6abe bd59 c13c 57bb 183e
000000f0: 0b91 3ab8 2bbe 413e 73e6 163e 138d bf3d
00000100: 3d7e 01be c766 923d b0d9 2e3e 0e6e ea3d
00000110: 825a 103e edf8 a2bc 4fe6 0c3d f8f4 263d
00000120: c6f9 4dbe 7980 513c 5c53 5ebe 47d0 9bbd
00000130: 0963 533d e305 2fbe 5b2d 54bb 1dc0 593d
00000140: 2e06 76bd 00ed 59be 88ee a63d 8e11 4cbe
00000150: d07b 53be 9353 153e 9920 fd3d ec70 d9bd
00000160: 6e70 393d 0ce5 4abd 421d 07bd 8996 313d
00000170: b30f 4b3e b2aa c8bc cc82 b5bd 7417 7e3d
00000180: f3e2 c5bd 76e7 4f3d 770a ca3d 68b3 323e
00000190: 6331 a53d 73f7 18be a265 9c3b 441e 303e
000001a0: 73ae 3e3e fbab 87bd e998 043e 5d8f a7bd
000001b0: e962 3bbd 5f2d fd3d 10c8 41bd e916 403d
000001c0: c9fb 9ebd 646e 29be c79e 3b3e 867c c03c
000001d0: d221 1d3e c038 cebd f141 c9bd 6399 783d
000001e0: b1ae d5bc cba9 d73d bc0f f93d 568e f5bd
000001f0: 949e 223e 61bd be3d 0031 2c3e 16a9 5abe
00000200: 08fe 503d b382 493d efc1 b3bc baa4 67bd
00000210: 6c2b 61bd 0211 933d 4a59 31be 6d31 fc3d
00000220: 2ddb a23d 20be 163e 0e8f e23d 39d0 fc3d
00000230: 926b 093e 7a54 5c3d 192a 0c3d a014 9d3d
00000240: b391 d53d 4d86 a43d c1f5 07bc 81bc c33d
00000250: 55df f23d 869d e23d 9470 e33b 70f8 683d
00000260: 18c2 66bd 4fd9 573e 1bec a13d 9532 25bd
00000270: 00a2 3e3e 2531 62be b177 bd3d 0c41 f13d
00000280: fdf3 b7bd 9cbc 623d a2d2 2a3c a6f6 0bbe
00000290: b9d3 94bd be89 3b3e 84f7 693e fb6a 413e
000002a0: 0434 2d3d 5eb3 313e 975c 923d 20ef b63d
000002b0: ea2f edbd 2a1a d33d e81b eebd b8bd 073c
000002c0: 208b 823c 512f dfbc 0aca 2bba 9149 a23d
000002d0: 8096 f53c b212 0abe 3e6a 1cbe 3d08 02be
000002e0: 10ae 313c 59d2 b03d c59d 1d3e 1992 19be
000002f0: 68d2 71bd 1217 acbc dfed 173e 410f 8fbd
00000300: 11d5 87bc 6532 663c 9bae 6c3d ae8b 63bd
00000310: 9d6f 053c 51a7 e83d a2f3 4dbc 7e58 5bbc
00000320: 632a 4d3e 3b70 003e 0446 41bd e849 9f3c
00000330: 30b2 213e 607c 72bc 0822 f53b b099 5ab9
00000340: ce5d 81bd a6df 013d 64a6 1a3e aab1 023d
00000350: 0fec a63d cb95 063d 0b19 903c 12ed 193e
00000360: ba1f 823d d11e d03d c92a 4f3e d8f3 163e
00000370: fe5c 66bd 2435 a13d 45a3 1dbe 5d1a 3a3d
00000380: 04e5 90be d917 06bd 9e8e 573e f8fe 46be
00000390: 075b f1bc adf2 fbbd 756a 34be a502 07be
000003a0: d101 b9bd b1e0 aebc 3e39 0f3d 8bb9 4a3e
000003b0: abba 473e a356 16be 9fe3 9b3d fd05 c1bd
000003c0: f62e da3c c574 c03d 8e9f 4abd 2777 fd3d
000003d0: 9796 49be 9d1c bf3d 1357 5b3c 9e34 c73d
000003e0: 13af 9cbd 0b55 963d b014 223d 4026 3bbd
000003f0: 7c5a 993d fad4 a13d 0650 9d3c 0d52 c63c
0.19803712 0.17609335 0.24893835 0.023074608 0.18720724 0.11383977 -0.08641591 -0.15745988
0.051555336 0.19270958 0.0055603334 0.120509505 0.06778357 0.089186 0.09955397 -0.09390388
0.24794333 0.14187713 -0.14722517 -0.025104241 -0.1312457 -0.11877088 0.0059915376 -0.054306716
-0.104924686 0.046531834 0.25164545 -0.18182585 0.28984112 -0.053748973 0.040261302 -0.15383987
0.036353193 0.05187552 -0.11912604 0.16258517 0.096704096 -0.21530354 -0.03880787 -0.039425623
-0.077310935 0.03918247 0.032140978 -0.0112930285 -0.033790473 -0.17002842 0.17502114 0.011050917
0.0817549 0.015546305 -0.0045731626 0.024538642 -0.062196642 -0.21499537 -0.0038774945 -0.0656827
0.11679959 -0.22858329 0.02360236 0.14915214 -4.4480938e-05 0.189202 0.14736347 0.0935308
-0.12645812 0.071485095 0.17075229 0.114467725 0.14097026 -0.019894088 0.034399327 0.040760964
-0.20114812 0.012786978 -0.21711487 -0.07608085 0.05160812 -0.1709209 -0.0032375667 0.05316173
-0.060064487 -0.21281815 0.08150965 -0.19928572 -0.206527 0.14582662 0.12359733 -0.10617241
0.045273237 -0.049534842 -0.032986887 0.043356452 0.19830208 -0.024495456 -0.08862838 0.062034085
-0.09662428 0.050757848 0.09865277 0.1745125 0.080660604 -0.14938144 0.0047728578 0.17199045
0.18621235 -0.066245995 0.12948956 -0.08181641 -0.045748625 0.123621695 -0.047309935 0.04689685
-0.07762868 -0.16546017 0.18322287 0.023496877 0.15344933 -0.10069418 -0.098270305 0.060693156
-0.026084276 0.10530432 0.12161204 -0.11990039 0.15880805 0.09313465 0.16815567 -0.21353564
0.051023513 0.04919691 -0.02194306 -0.05655358 -0.05497305 0.07180978 -0.17319217 0.12314115
0.07951961 0.14720964 0.11062442 0.12344403 0.13419941 0.0537915 0.034219835 0.076699495
0.104281805 0.08033428 -0.008298338 0.09557439 0.118590035 0.110652015 0.0069409106 0.056877553
-0.056337446 0.2107899 0.07906362 -0.040331442 0.18616486 -0.2208906 0.09251345 0.11779985
-0.08982084 0.055355653 0.010426195 -0.13668308 -0.072669454 0.18314263 0.22848326 0.18888466
0.042285934 0.1735358 0.07146566 0.08932328 -0.115814045 0.10307725 -0.116264164 0.008284979
0.01593548 -0.027244242 -0.00065532385 0.07924188 0.02997899 -0.13483694 -0.15274903 -0.12698455
0.010844722 0.08633871 0.15392216 -0.14997138 -0.05903855 -0.021007095 0.14836834 -0.06985331
-0.01658109 0.014050101 0.057783704 -0.05555313 0.008144286 0.11360038 -0.012570294 -0.013387797
0.200357 0.12542813 -0.047185913 0.019444421 0.1579063 -0.014800161 0.0074808635 -0.00020847353
-0.0631672 0.03170743 0.15102535 0.031907715 0.08150493 0.032857697 0.017590066 0.15031841
0.063537076 0.10162128 0.20231165 0.14741457 -0.056241028 0.07871464 -0.15394314 0.0454353
-0.28299725 -0.032737587 0.21050498 -0.194332 -0.02946235 -0.12302146 -0.17618735 -0.13184603
-0.090335496 -0.021347376 0.0349667 0.19797342 0.19504802 -0.14681487 0.07611775 -0.0942497
0.02663372 0.09397272 -0.04946857 0.12376242 -0.19686352 0.093316294 0.013387459 0.09726833
-0.0765058 0.073404394 0.03957051 -0.045690775 0.07487962 0.0790195 0.019203197 0.024209047

encoder.bias_ih_l0 f4 [200]
00000000: 45d5 efbc 0ad0 153d 6d49 053e c685 133b
00000010: bbda 5e3d f236 463e a41b 363e 28a2 463e
00000020: a14c 923d 6150 9f3d a10a fa3d 1f3a d0bb
00000030: 278a a0bd 98d0 053e cdab a03a cff4 063e
00000040: 17ce 593e 3f17 5e3e ffb9 153d 5ed7 dfbb
00000050: 04d7 bc3d b5e4 683d 1adf 4ebc 66c6 25bd
00000060: 17fe d53d 79b1 043e 8d42 443e e377 7b3d
00000070: a014 a73d 40fd c13d 9b06 76bd dc2f 5f3e
00000080: eead b93d cb1f 163d d1a8 1a3e b152 e73d
00000090: 2e5f de3d 4a35 fc3d 59a4 873c e70d 4e3d
000000a0: 5904 cfbc 9711 143e e4ab 2e3e f718 ce3c
000000b0: 5b93 2a3e 07e2 19bc 19e9 5abd 81f9 96bd
000000c0: 3945 4c3d a170 183e 0263 033d 7177 e03d
000000d0: 5fee 163b d976 fabc 6da2 173e 61df 153e
000000e0: 51fa b3bd ca8b e93a a571 5abd 6197 c43d
000000f0: 741c 033e 521e 123e 0c9a 063e 988c af3c
00000100: 25a5 c4bd 4e13 503e dc3b 8d3d b8e4 603d
00000110: 5eb1 543d f227 493e de48 a03d fc78 303d
00000120: 886d efbc 9f6f 7e3d aa6d ed3d 5e73 7f3d
00000130: c586 473e fd14 873e 1659 433e 7e76 123e
00000140: 1338 953d e4fc 5d3e 55e9 5dbd 5950 80bd
00000150: 7a89 9e3b 906a 553e ef0f 513e 405d f33d
00000160: b21c a0bc d621 493e f1a5 a3ba 39b1 16bd
00000170: e16b ac3d 5a0f 3d3e c5f3 253d 8157 763d
00000180: cd80 933d b94a b33d 535d d83d 63b0 743e
00000190: c35d c73d 4842 3b3e 7b84 3fbe b14c b43c
000001a0: 10f4 963d 78a2 c23d 1699 0e3e 6256 3dbe
000001b0: 0bc7 473d bc23 f63d 4680 063e 4f97 9dbd
000001c0: f207 86bd da9a 1abe 4449 8bbd a938 353d
000001d0: 2596 8d3d 8008 233e 4237 26be 62dd eb3d
000001e0: 5da5 433d 9eba 8a3d f125 653c 4dd3 14be
000001f0: 4bd8 b0bd a30a 1abe 7740 943d e16f 52be
00000200: 856e 5e3e 9272 003d 2a29 e1bb c6b7 a2bd
00000210: 7abd e5bc bea2 e7bd b4a3 5ebe eb22 49bc
00000220: 01d7 cdbc 75fd 6abd c2b8 243e cd65 ac3d
00000230: 0017 b9bd 6eb1 1f3d 2bee 0c3e 9b40 a5bd
00000240: c452 e6bd aa19 0e3c f93f 583d 5a59 113e
00000250: e153 503d 467a 643e 6be9 583e 72b0 9a3d
00000260: cb5f c33d 9256 fe3b b917 703e bc7c 583e
00000270: 160a 4f3d 4c91 da3d 7464 333e cf71 053e
00000280: 3ab3 af3d 0827 b63c 3b7d ff3d d125 cb3d
00000290: bfd0 973d 8e72 9c3d a634 453d 7830 883e
000002a0: 7d68 b33d d9ca 843d de83 953c 8187 2a3e
000002b0: eae6 3d3e 4b14 19bd 124c 96bb ea64 923d
000002c0: 0edb 0c3d 6f45 4f3d 808b 593e 0fc5 133e
000002d0: 3f16 5cbc 2213 d43d 3dbf e2bb c774 5dbd
000002e0: a5f6 853e 2313 1c3e 9854 3f3e dcec 293e
000002f0: 05d8 2d3e e3fe 713b f872 3e3e 2e4b 933d
00000300: 62c3 473d 5820 5e3e 14c6 a93e bdd8 1f3e
00000310: afb5 06be d5ee 71bb 3961 b63b 7903 6f3d
-0.0292765 0.036575355 0.13016291 0.0022510155 0.054407816 0.19356897 0.17783982 0.19397795
0.07143522 0.07779003 0.122090586 -0.006354585 -0.078388505 0.13067853 0.0012258232 0.13179325
0.21270023 0.21688555 0.036554333 -0.0068310937 0.092206985 0.056858737 -0.012626434 -0.04047241
0.104488544 0.12958325 0.19166012 0.06139363 0.08158231 0.09472132 -0.060064893 0.217956
0.090663776 0.036651414 0.15103461 0.11295069 0.10857998 0.123148516 0.01655786 0.050306227
-0.025270628 0.14459835 0.17057759 0.025158389 0.16657774 -0.009392268 -0.053444955 -0.07371808
0.049870703 0.14886715 0.032076843 0.10960282 0.0023030264 -0.03057425 0.14808054 0.14635994
-0.087879784 0.001781815 -0.053331036 0.09599186 0.12803823 0.14269379 0.13144702 0.021429345
-0.09601811 0.20319864 0.06896183 0.054905623 0.051926963 0.19644144 0.07826398 0.04308413
-0.029227033 0.06211817 0.115931824 0.062365882 0.19485004 0.263832 0.19076952 0.14303014
0.07286086 0.21678501 -0.0541776 -0.06265325 0.004838166 0.20841432 0.20416234 0.118830204
-0.019544933 0.19641814 -0.0012485367 -0.036790106 0.08419014 0.18462887 0.04051568 0.060142044
0.07202301 0.087544866 0.10564675 0.23895411 0.097346805 0.18287003 -0.18702881 0.022009226
0.0737077 0.09503645 0.13925585 -0.18489984 0.048773807 0.120185345 0.1313487 -0.076948754
-0.06544484 -0.15098134 -0.06801084 0.04424349 0.069134034 0.15921211 -0.16232017 0.11516835
0.047765125 0.06773876 0.013986097 -0.1453373 -0.086350046 -0.1504312 0.07238858 -0.20550491
0.21721847 0.031359263 -0.006871362 -0.07945208 -0.028044451 -0.113103375 -0.21742135 -0.0122763915
-0.025126936 -0.05737062 0.16086105 0.084178545 -0.0903759 0.03898757 0.13762729 -0.08068963
-0.11246255 0.008673111 0.052795384 0.14194241 0.050861243 0.22312269 0.21182792 0.075531855
0.095397554 0.007761785 0.2344655 0.21141332 0.050546728 0.106722444 0.17518789 0.13031696
0.08579107 0.022235408 0.12475058 0.09919322 0.07412862 0.07639037 0.048145913 0.2659948
0.08760164 0.064840026 0.018251356 0.16653253 0.18545118 -0.03737287 -0.004586705 0.07148154
0.034388594 0.050603326 0.21244621 0.1443064 -0.013433038 0.10355212 -0.00691977 -0.054066446
0.26164737 0.15241675 0.18684614 0.16594261 0.16976936 0.0036925606 0.18598545 0.07192074
0.048770316 0.21692026 0.33158934 0.15610023 -0.13155244 -0.0036916037 0.005565789 0.05835292

encoder.bias_hh_l0 f4 [200]
00000000: c23e cabc d1b5 0f3d 26b0 6abd 2fef 613d
00000010: abfb e93d c59e b03c 5306 7d3d 9d5b 283d
00000020: 5117 aabd 4cb4 b23d 5069 04bd 5982 dc3d
00000030: b046 3e3b 64ba d53b a3e2 243e cb7f 323e
00000040: 10d9 043e 6cf9 573e ad10 2abc d3f8 27bd
00000050: df6b 193b 1ef2 2c3e c6ed 1e3d dcd4 a6bd
00000060: 1e10 fa3d c2b8 113e 7d16 763e fe5d f739
00000070: 7fcd 983e 3891 20bd 305c 7a3d 7ccc 433e
00000080: bef8 92bd 5619 323d a704 8c3e e06f 8fbd
00000090: 2007 dcbc 5355 0b3d a786 a2bc dd80 183d
000000a0: 022b c1bc b091 a73d 84a2 373d 62b2 403e
000000b0: b41e 873e f72b 0a3e dc43 a4bd 43b2 7d3d
000000c0: 3782 473c d922 1d3e 81db 143e 6906 1c3e
000000d0: b7e6 e03d 73ff cfbc 1314 653e 7de5 1f3e
000000e0: 7914 babd b21d 1c3e 594d 36bd 8ddc 80bd
000000f0: 724e bd3d db9b 86bd cc1c b73d dca3 3d3e
00000100: 8a5e 37bd e043 5c3d 8e40 553e beeb 603e
00000110: dd9b c5bc 9a31 c1bc 4f57 0e3e 3270 2a3d
00000120: 73bc 5c3e 5d1e fa3d d9dc 6cb9 2d77 99bd
00000130: d0e0 673e 29eb 453e 027f 663e d8eb 983d
00000140: b9b5 c0bd 1492 913d a338 5a3e 60a8 0e3e
00000150: 1a95 e53d f771 373e 0819 7b3d ac6a bc3d
00000160: ec57 b03d ce6d 023e 265f 993d 9b83 a43d
00000170: 797b 1f3e 60fb 11bd ab53 0d3e 25d5 233d
00000180: 8734 1cbd 6e6d 1e3d 6191 97ba 6498 733e
00000190: 39d3 473e 904b 893d c585 793d ad08 863d
000001a0: 71fe 603e 9334 1bbe ba8a 0b3d 48cf e9bd
000001b0: 1040 75b9 cf68 b23d c1a6 aa3d aab8 143d
000001c0: 414e 943d cbf5 08be b9bc 393d 566b 0e3e
000001d0: c46f 523e 1d4a 7e3e 66b2 183d e032 763d
000001e0: 4c8a 3cbc 0c38 ef3d ea8f 36be 2ca1 ce3d
000001f0: a591 03be a469 aebc 72db 683e 3b23 4ebe
00000200: a1c2 613e f1b2 afbd 6e05 e73c 6860 55be
00000210: 10dd 24be 551f e43d e6f4 bfbd 31c7 543e
00000220: 7f0c 963d 9bd8 a1bd 136f 143e 1cbf 83bd
00000230: 2f6d 09bc a356 cc3d e2f1 3e3e b28a 163e
00000240: eba6 22bc 1c9e ca3d 6b9f 82bd e441 113e
00000250: e667 c53c 8e24 103e 56a3 f83d 7529 203e
00000260: 1930 99bc 71b5 0d3e b7b2 283e 3c71 523d
00000270: 653b 0a3e 3efb e73d 9e23 253e e3ec 493e
00000280: 12c1 223e deaa 3e3c 0e8f ea3d 39aa 803e
00000290: 7b85 173e e7cf 6b3e 1526 5f3e ddad b83d
000002a0: 87bc 8ebc 0517 1c3d 56dc 073e 8e06 333e
000002b0: 907c 0f3e d9f1 55bd 278a 9b3d a97b 21bb
000002c0: 2d8c d43c 0229 f73d dd38 e93d 244d 863a
000002d0: 1448 a4bd 9bd2 dd3d 8d94 f63d e33d 95bd
000002e0: 0064 8d3e 4c85 2a3e 5fa9 51bd f8d1 ec3d
000002f0: 0eec 143e b5fe 543d a36b fa3c 4af4 453e
00000300: c6d3 943e f109 88bc ccfa 293e 2f10 813e
00000310: 3bf6 ddbb e5b8 c23d 84fb 04bd c659 923d
-0.024688128 0.035085503 -0.057296894 0.055159744 0.11424955 0.021560082 0.06177361 0.041102994
-0.083052285 0.08725795 -0.032326996 0.10767049 0.0029033832 0.0065224636 0.1610208 0.17431562
0.12973428 0.2109124 -0.010379952 -0.04100878 0.0023410243 0.16889235 0.038800977 -0.081460685
0.12210105 0.14230636 0.24032016 0.0004718154 0.2984428 -0.03920099 0.061123073 0.19120973
-0.0717635 0.043481193 0.273473 -0.0700376 -0.026858866 0.03401692 -0.019839598 0.03723227
-0.023580078 0.081820846 0.04483272 0.18818048 0.26390612 0.13493334 -0.08020756 0.06193758
0.012177042 0.15345325 0.14536859 0.1523682 0.10981505 -0.025390362 0.22370939 0.15614887
-0.09085936 0.15245703 -0.04450736 -0.06292067 0.09243478 -0.06572696 0.089410394 0.18519539
-0.044767894 0.05377567 0.20825407 0.21964929 -0.024122173 -0.023583222 0.13900493 0.041610904
0.21556263 0.122128226 -0.00022588986 -0.07493434 0.22644353 0.19327988 0.22509387 0.074668586
-0.09409661 0.0710794 0.21310668 0.13931417 0.112100795 0.17914568 0.06130317 0.092000335
0.0861052 0.127372 0.07488851 0.08032914 0.15574445 -0.03564012 0.13801448 0.039998192
-0.03813603 0.03867858 -0.0011563712 0.23788601 0.19514169 0.067038655 0.06091859 0.065446235
0.21972062 -0.15156774 0.034067847 -0.11416489 -0.00023388886 0.08711397 0.08332587 0.036308922
0.07241488 -0.13375013 0.045345996 0.13908133 0.20550448 0.2483296 0.03727951 0.060107112
-0.011507582 0.11680612 -0.17828336 0.10089335 -0.12848528 -0.021290608 0.22739962 -0.20130627
0.22046901 -0.08579052 0.028200831 -0.20837557 -0.16099954 0.111387886 -0.093728825 0.2077911
0.07326602 -0.07902642 0.14495496 -0.064329356 -0.008387848 0.09977462 0.18646958 0.14701346
-0.009927492 0.09893438 -0.06378063 0.14185292 0.024097394 0.14076445 0.12140529 0.15640815
-0.018699693 0.13838746 0.16474424 0.05137752 0.1349922 0.113272175 0.16126868 0.19719271
0.15893963 0.011637418 0.11453067 0.2512987 0.14797013 0.23028527 0.21791871 0.09017537
-0.017423881 0.03810789 0.13267645 0.17482969 0.1401236 -0.052232597 0.0759471 -0.0024640358
0.025945747 0.120683685 0.11387799 0.0010246378 -0.0802156 0.108311854 0.120400526 -0.072871946
0.27615356 0.16652411 -0.051186915 0.11563486 0.14543173 0.05200072 0.030568903 0.1933147
0.2906782 -0.016606303 0.16599578 0.2520766 -0.0067737377 0.09507922 -0.032466426 0.07146029

encoder.weight_ih_l0_reverse f4 [200, 50]
00000000: 45ce 9abc 7e6a 80bd fde6 c63d d56b 3c3d
00000010: 1a7c 5a3d 7442 4e3e 23b0 d6bd 661f 03be
00000020: 69c2 98bc 977e 7b3d 25f7 8dbc d917 ec3d
00000030: 4b25 883d 0fc8 27be 7c32 993d cb46 67bc
00000040: 26c2 343d 0727 4e3c 2266 3d3d 3581 043e
00000050: c7c8 c33d 3c53 b63d da3a 4e3e 2d85 ee3c
00000060: c49c be3c 60d2 58bc 9017 d33c 1336 b33d
00000070: abbc 24bd 7c22 0fbe 1f05 823d 9a99 e03c
00000080: 8ecd 07bd 6c4a 823c ee7d dfbc 2867 133e
00000090: b8a9 683e d922 63be 3ec1 8f3c 61dc 413e
000000a0: e130 173e 6a65 f23d 15aa 25bd eb79 c1bd
000000b0: a751 443e 7e5e 893d 1002 5a3d 3bde 70bd
000000c0: 1422 ac3d 58c1 a53d 65a3 86bc 71ee c3bc
000000d0: 776a debc f7ae 0b3e afc6 1b3d 227e 33bc
000000e0: a136 c8bd 916b babd a3e8 abbd c75b 3ebc
000000f0: 012d 273e b3f8 43bb 3d61 63be 9200 8fbd
00000100: 8449 203d 3d78 4abe da80 333e 191d 313e
00000110: 2248 5cbd b647 173b c0c9 413d db28 0c3e
00000120: 6a89 dfbd a7b1 fe3c 49a8 8bbd 9245 c5bc
00000130: 298f 3e3d 924f cdbc d623 c8bc 711e 39bd
00000140: 5950 e23d b7ea 13bd 45ae db3d 1398 003d
00000150: 21b2 03bd c6b4 10be e57c 97bc 0649 873d
00000160: 60d3 ba3c a8e3 44bd 2aa0 b13b 69e5 db3d
00000170: fa6b b63d beb1 6f3d 9197 e33c 17eb 6e3d
00000180: 3042 c1bd 9486 0d3e 1f6a 993d 7d94 aebd
00000190: 4a8f d7bd a130 a5bd 9589 00bd a3b5 20bc
000001a0: 46a0 9c3d c606 e4bc 158d 493d 3069 f73d
000001b0: b7d3 b1bd d1a6 67be fe77 7e3c 26ca e6bd
000001c0: 9f2a a0bd ca17 e33b 7fa6 ae3d d680 a0bd
000001d0: e380 f23c 7aa6 a1bc 5336 f33c 3ea6 ee3d
000001e0: e8f3 0ebe e4c9 223e 4907 793c 087e 193e
000001f0: 7864 813d 3811 7abc 3b4f c73d 5e9b 4ebd
00000200: ca32 32be e27d 08be 2c45 693c 4ce2 23bd
00000210: cfe6 27bc e9ac 69bd f587 67bd 0531 b93d
00000220: d602 053d 9031 3dbd e0c1 893d cbd6 b4bc
00000230: e3fe f1bb 6816 403d 77a6 a2bd 5ac7 c6bc
00000240: b8e9 cfbd e272 c5bd 94b3 40be 3db9 8d3d
00000250: 1285 03be 8530 acbc e64c 203d 3c40 4f3d
00000260: 6ad3 583e 5417 e9bc 74ca 8b3c 996e a23d
00000270: cf66 80bb 5880 303d e75f f63a cd39 363a
00000280: 1dec 843d ddc0 1bbe e460 e3bd 98ef 23bc
00000290: 5bda e6bd d07f 613b 11c0 de3d d675 8b3d
000002a0: da3f 8e3c 262f 933d 8ed9 4c3d d73e 85bd
000002b0: fe0c 153e 3095 da3d 6e39 d73c 6172 513e
000002c0: 39b3 89bd 3b5c c8bc 9d3d 39bd 7d8c 98bd
000002d0: 630e 133e 26ce 2dbe 08cd ad3d 847f 353b
000002e0: 6e85 b9bd 052f c13d 123b 3d3d 5a3a 20bd
000002f0: 10c3 ef3d 697a 523d 79c4 7bbd 53e1 f6bc
00000300: abdc fe3d 0826 9b3d 123f 66bd bc53 f5bd
00000310: 7b8e 58be 1e49 3fbd c83c 4b3c f96d afbd
00000320: f259 dc3c 1c34 3dbe 411e 313e 8122 2fbe
00000330: d0c8 6d3d 69a1 833c 6756 e1bd e9bf fa3c
00000340: 4ccc 7b3d 105c 33be b45c f13c 0294 1d3e
00000350: 3e88 0f3c b567 a9bd 197e 88bd 6ecb 853d
00000360: 01e2 9cbc f402 c03d 8d26 8a3c ca9e 0f3e
00000370: cfe8 703c 850a 3b3d 3658 4e3c 47a0 2bbe
00000380: afc2 b73d bf5b 733d ff89 e63d 058e 3f3b
00000390: 6fd5 74bd ca2e 0cbd 5535 653c d869 05bd
000003a0: 9f82 273e d412 8b3c 94fc d3bb 37e2 cd3d
000003b0: 1ccc bdbd 31c4 9bbb b342 bbbd 7372 be3c
000003c0: c3ef a0bd d036 6d3c 8aa2 c13d c4c4 903d
000003d0: a808 8d3d a498 003d 360a c23c 1af2 adbd
000003e0: 9fdd a8bc 0251 b5bd 07d7 803d b7cd 02be
000003f0: afa7 a73c 4bdb 2ebe d09f bf3c 6c68 a0bd
-0.018897185 -0.06270312 0.09712026 0.046001274 0.05334101 0.20142537 -0.10482814 -0.12804946
-0.01864739 0.061400022 -0.017329762 0.11527986 0.06647738 -0.1638491 0.07480332 -0.014115999
0.044130467 0.012582547 0.04623998 0.12939914 0.095597796 0.089025944 0.20139638 0.029116238
0.023268111 -0.013233751 0.025768071 0.08750548 -0.04021899 -0.13977998 0.06348633 0.027416993
-0.033155017 0.015904628 -0.027281728 0.1439482 0.22720993 -0.22181262 0.0175482 0.18931724
0.1476474 0.118357494 -0.040445406 -0.09447082 0.19171773 0.06707476 0.053224623 -0.058805685
0.084049374 0.08093518 -0.016435334 -0.023917409 -0.027150376 0.13640963 0.038031276 -0.010955365
-0.09776045 -0.09102548 -0.08393981 -0.011618561 0.16325761 -0.0029902875 -0.22205062 -0.06982531
0.03913261 -0.1977243 0.17529622 0.17296256 -0.05377973 0.0023083515 0.047311544 0.1368746
-0.109148815 0.03109057 -0.06819207 -0.024081025 0.046523247 -0.025062356 -0.02443115 -0.045195047
0.11050481 -0.036112513 0.10726599 0.03139503 -0.0321523 -0.1413146 -0.018492172 0.06605725
0.02280587 -0.048068672 0.0054207044 0.10737116 0.08907314 0.058519118 0.027782233 0.058329668
-0.094364524 0.13820869 0.07490944 -0.08524416 -0.10525377 -0.08065916 -0.03138121 -0.009808931
0.07647757 -0.027835261 0.049206812 0.1208061 -0.086829595 -0.22622229 0.015531538 -0.112690255
-0.07820629 0.006930326 0.0852785 -0.078370735 0.029602474 -0.019732703 0.02968899 0.11652802
-0.1396023 0.15897328 0.015199491 0.14989483 0.06317991 -0.015262894 0.09731909 -0.05044114
-0.17402187 -0.1332927 0.014237683 -0.040010735 -0.0102479 -0.057049666 -0.056526143 0.09042553
0.032473408 -0.046189845 0.06726432 -0.022075078 -0.007385121 0.04689637 -0.07941907 -0.02426498
-0.10152 -0.09641053 -0.18818504 0.06920097 -0.12843731 -0.02101923 0.039135836 0.050598368
0.21174398 -0.028453507 0.01706431 0.07931251 -0.0039185057 0.04309115 0.0018796892 0.0006951362
0.064903475 -0.1521029 -0.11102465 -0.010005854 -0.11272117 0.0034408458 0.108764775 0.06809585
0.017364431 0.07186727 0.050012164 -0.065061264 0.14555737 0.106729865 0.026272502 0.20453788
-0.06723637 -0.024458041 -0.045224775 -0.07448671 0.14360957 -0.1697317 0.08486372 0.0027694413
-0.09058653 0.094327964 0.046198912 -0.03911815 0.11707127 0.05138627 -0.061466668 -0.03013674
0.12444433 0.07575613 -0.056212492 -0.11978862 -0.21148102 -0.04670059 0.012404628 -0.085658975
0.026898358 -0.1847691 0.17296697 -0.17103006 0.058052838 0.016068177 -0.11002808 0.030609088
0.06147413 -0.17515588 0.02946315 0.15388492 0.00876051 -0.08271734 -0.06664676 0.06532942
-0.019150736 0.09375563 0.016864086 0.14025417 0.014703943 0.04566433 0.012594273 -0.1676036
0.0897268 0.059413668 0.112567894 0.0029228937 -0.05977386 -0.03422431 0.013989766 -0.032571644
0.16358422 0.016976751 -0.0064693186 0.10052913 -0.092674464 -0.0047536124 -0.09143581 0.023247933
-0.07858231 0.0144784 0.0945483 0.0706878 0.06886417 0.03139557 0.02368651 -0.08493443
-0.02061349 -0.08853342 0.06291013 -0.12773786 0.0204657 -0.17075841 0.023391634 -0.07832417

encoder.weight_hh_l0_reverse f4 [200, 50]
00000000: abe9 1bbe 4d97 31bd 75a1 31bd 5906 48bd
00000010: 19d8 623d 4954 91bc 3048 1cbd 376a 323d
00000020: 020b e33c 8006 163e f425 07bd 0cd8 9b3d
00000030: 3d9c 053d b1ca 12bd 64f0 0c3d ea99 38be
00000040: b137 08be 7ed3 25be 3abc e83d 5872 01be
00000050: dec4 c0bd 2be3 25be a6a8 43bd 1ccd b5bd
00000060: bbda 333e a1e0 033e cc9d 14be 7344 13bd
00000070: a830 273e 27d5 98bc c4d2 f4bd 0e3d 853c
00000080: 77be eebd 4793 96bd c9af 2f3e 8188 af3d
00000090: d6f1 b1bc 99ad c63c 7e19 c83d 96c4 bfbc
000000a0: 6571 59bd 2adc 78bc 6d9f b93d e2ca 843c
000000b0: 58ab 983c 0569 8b3d ae4d 5dbd b258 e7bd
000000c0: 7310 253d 7b28 afbc ef60 39be 0020 793c
000000d0: fdba a43c a9bd 043e fba3 aebd 1614 f8bc
000000e0: 17fb 66bd a815 14be 1f78 cc3d 01ca ce3d
000000f0: 5d85 02bd 0279 38be e6bb 5e3e 36c3 603d
00000100: 3c34 8dbc cf61 ecbd a71e 07be 7d26 30be
00000110: 4c1e 733d b320 74bc 3b44 a6bc 0494 e9bd
00000120: 200f 833e 029f 073d ae22 103e 47c4 313e
00000130: 97a0 493d 3115 ca3c 7194 593e 218b 5abe
00000140: 0757 6bbe 9703 cdbc a654 ca3d 6848 01be
00000150: 46a0 093e b1f5 46bd 54bd 76be e66e abbd
00000160: 7aa7 203e 93df 03bd a773 603d 134e 363e
00000170: 136b 9e3c 6f2f 063e 2a6d 88bc b1a1 46be
00000180: e77d 1c3d 81c5 d1bd c51b 06bd 7e14 ecbc
00000190: 9197 15bd 9599 89bd 3809 513d 2a66 053e
000001a0: a950 8e3d 6435 abbd 9733 e5bd 08ce 013d
000001b0: 63f8 e03c 1f39 c9bd f01c 193d b2ab 55bc
000001c0: b25e 173e c3c7 d03d ac90 84bc 1361 99bd
000001d0: 4239 a2bc 7a08 f6bd c352 c4bd 8abc f7bd
000001e0: 5811 273d 5397 8a3c 9649 da3d 277b aa3c
000001f0: 19e1 5e3d c223 953d 13bb 05be 49d2 35bd
00000200: 2e2b 1cbc 526c 89bd af29 9c3c b22c 95bd
00000210: 6d12 9c3d 421a 633d e503 9a3d 65ae aabc
00000220: bd1a dcbd 53c6 453d c4df 0f3d d079 f43d
00000230: 9147 4ebc 4b9e 513e 7f51 17be d3a6 ef3c
00000240: ea84 f33d 4c38 b5bc 9b4a cdbd 8bc2 1ebe
00000250: f70b 31be 4734 903c 8de7 f13d 2e1b 6dbc
00000260: c1c9 933d 0651 89bd 4cb7 d1bc 2003 213e
00000270: 9126 0b3d f5a6 77bd ff03 a23d 729d 123e
00000280: 9be3 463d a253 18bc 8f0d 80bd 27c9 603d
00000290: afc8 ea3d 7dbc eebb 7ad3 9dbd 6cf3 29be
000002a0: 9728 0b3e 7a0d 0c3e ca48 d3bb 0dc7 87bd
000002b0: 5fe1 d938 3af0 29bd 96f1 373e c93a 613d
000002c0: 1a89 d63d 9b42 e3bc 065f 213e 2568 2ebd
000002d0: 0db2 223d aa28 e53a a604 f73d 02d0 05bd
000002e0: 9994 47bd bbad babc 412e a0bc 831a e3bc
000002f0: 6a9a b93c d5a9 483d a560 d83d e256 b43d
00000300: ef06 cd3d 15b1 183e 403e c23d 165b d9bc
00000310: c078 4cbe a327 683c 57fe 393e 1fe1 f2bb
00000320: c277 113b 5ad7 4fbe 3713 71bc e4c9 7dbd
00000330: 75ce dfbd 7c74 893d d9b6 b23d 8c5b 97bd
00000340: 6e34 62bd 8699 a53c d12c 6cbd 48a6 1abd
00000350: b381 683d 1afa 153e 9962 1bbe a2e8 ab3c
00000360: 313d afbd eebc f53c 4e1b d73d 65b7 e6bd
00000370: 583e 9c3d 9fa6 4dbe 7d7f 583d df38 21be
00000380: 9f3e eb3d b133 0e3e 3d1a 843d f2af c53d
00000390: 33c6 1e3e c4e2 25be 4999 b5bc 7e30 a13d
000003a0: 45c9 383e 619f 86bd 9a93 363e a0a8 35be
000003b0: 7ed9 21be 7421 f6bd bd57 e63d e2b1 c6bd
000003c0: 7920 f03c 042c b13d 8238 e9bd 2b24 743d
000003d0: f47a 87bd b2de 1dbe f0b6 f5bd 4039 30be
000003e0: bc0f fabc f278 a9bc 5b57 0ebe da46 87bd
000003f0: a255 bd3d e1ea 4b3e 1018 103e 71d2 3a3d
-0.15225856 -0.043357182 -0.043366868 -0.04883418 0.055381868 -0.017740386 -0.03815478 0.043558326
0.02771521 0.14650917 -0.03299518 0.07609567 0.032619704 -0.035837833 0.034408942 -0.18027464
-0.13302495 -0.16193959 0.11364026 -0.12641275 -0.094125494 -0.16199939 -0.047768258 -0.08877012
0.17563908 0.12878658 -0.1451332 -0.03595395 0.16327155 -0.018656326 -0.11954263 0.016264465
-0.11657422 -0.0735231 0.171569 0.08570958 -0.021721762 0.0242527 0.09770487 -0.02340917
-0.053086657 -0.01518921 0.09063611 0.016210023 0.01863639 0.0680714 -0.05402916 -0.11296214
0.04029889 -0.021381607 -0.18103383 0.015205383 0.020108694 0.12962975 -0.085273705 -0.030283015
-0.0563918 -0.14461386 0.09983849 0.10097123 -0.031865466 -0.18014911 0.21751365 0.054873668
-0.017236821 -0.11542093 -0.13195287 -0.17202182 0.059355065 -0.014900374 -0.020296207 -0.11405185
0.25597477 0.033110626 0.14075729 0.1736003 0.049225416 0.024668308 0.21248032 -0.21342136
-0.22982417 -0.025026126 0.09879427 -0.12625277 0.13440046 -0.048574153 -0.2409566 -0.083707616
0.15688887 -0.03219564 0.054797795 0.1780322 0.019338166 0.13104032 -0.016653616 -0.19397618
0.038206007 -0.10242749 -0.032741327 -0.028818365 -0.036521498 -0.067187466 0.051034182 0.13027254
0.069489785 -0.08359793 -0.111914806 0.031690627 0.02746219 -0.09825348 0.037381113 -0.013041424
0.14782217 0.101943515 -0.016182266 -0.074892186 -0.019802693 -0.120133355 -0.09586098 -0.12096508
0.040788025 0.01691786 0.10658567 0.020810677 0.05441389 0.07282211 -0.13059644 -0.044389997
-0.009531779 -0.067101136 0.019062845 -0.072839156 0.07620702 0.055444963 0.07520274 -0.02083511
-0.107472874 0.04828484 0.03512551 0.119372964 -0.012590305 0.2047054 -0.14777182 0.029254353
0.11890586 -0.022121571 -0.100239955 -0.155039 -0.1728972 0.017603053 0.11811743 -0.014471812
0.07216216 -0.06704907 -0.025600098 0.15723848 0.033972327 -0.060461957 0.079109184 0.14317873
0.048556905 -0.009297283 -0.06252586 0.054879334 0.114640586 -0.007285653 -0.077063516 -0.16596764
0.13589703 0.13677016 -0.006447886 -0.06629763 0.00010389345 -0.041488864 0.17963251 0.054987703
0.10475369 -0.02774172 0.15758905 -0.04257979 0.039720584 0.0017483432 0.120614335 -0.032669075
-0.0487257 -0.02278792 -0.019553306 -0.027722603 0.022656638 0.04899009 0.105653085 0.08805634
0.10011088 0.14911301 0.094845295 -0.026532691 -0.19967937 0.014169606 0.18163429 -0.0074120904
0.0022196625 -0.20296994 -0.014714054 -0.061960116 -0.109280504 0.06711671 0.08726282 -0.07390508
-0.055225782 0.020214807 -0.057659928 -0.037756234 0.056764316 0.14646187 -0.15174331 0.020984951
-0.08556593 0.029997315 0.10503255 -0.112654485 0.076290786 -0.20083092 0.052855957 -0.15744351
0.114865534 0.13886906 0.06450317 0.096526995 0.15505295 -0.16199785 -0.022167819 0.07870577
0.18045528 -0.06573368 0.17829743 -0.17740107 -0.15805623 -0.120180994 0.112472035 -0.09701897
0.02931236 0.086509734 -0.11387731 0.059604805 -0.06615248 -0.15416983 -0.11997783 -0.17209339
-0.03052508 -0.020687554 -0.13900511 -0.06605311 0.09244849 0.19913818 0.14071679 0.04561085

encoder.bias_ih_l0_reverse f4 [200]
00000000: 606d ad3d b670 a93c 629c 893d f504 ad3d
00000010: 83a5 a63d 0289 643e 22a3 14bd 5906 083e
00000020: e32b 863b f213 3d3c d0dd 643a fdcd 553e
00000030: 1314 e33d a012 95bc 939d a53d 56d7 e23d
00000040: f286 623e 1f3a 9e3d b369 983d 2e52 5bbd
00000050: ef6b 1b3e ecfb 103e 1544 c0bc 7c37 76ba
00000060: 765e 563e 16a4 283e 810b 293e 330b f1bb
00000070: 2647 af3d 8157 263e b6f4 f73c e0d6 5d3e
00000080: 2290 2ebd 262f 153e 8cf1 953d f36d ff3d
00000090: 6de7 513c 49b8 2f3e 6414 6f3e 6a67 8e3d
000000a0: 62e2 823d ff49 263e 5319 013e e406 dc3d
000000b0: 5c1d 443e ef34 64bd b89a 0e3e dadf 333d
000000c0: 4ad5 103e 6356 313e 5359 d4bd 7e29 a7bc
000000d0: dd80 5bbd e523 38bc ed68 88bd c184 d23d
000000e0: 73f3 0bbe be60 6f3e 38a0 673d 0e99 783d
000000f0: ab95 f33c 4bfe df3c f1ef 0b3d a40d 393e
00000100: 8a84 833d b674 77bd 4745 973c 2cd5 803c
00000110: 2b98 bdbc 12b7 253e 8ade 1e3d 4c48 e8bd
00000120: e699 15bd d793 403e 4efc 6d3d 32b9 583e
00000130: 30a4 353e 47f3 b2bc 26a3 0a3e 6f3c 0a3e
00000140: 0c6b 9b3d 03b2 843d 6716 413e 824a 273c
00000150: 5b7f 33bd f98b 6fbd 0f78 383d 1ff5 d6bb
00000160: 7fb5 0d3d 94e5 56bd 28d6 1c3e ab69 573d
00000170: 2748 fabc 96fe e8bc 9309 b8bd d693 fb3d
00000180: dcb6 1a3e f722 0a3e 4594 4b3e 23de d33c
00000190: c088 693b b90f 43be e72c 4d3e 184c 033e
000001a0: 4f6e 6e3d 9b54 15bd 922c 8a3d 9764 313c
000001b0: 2ef7 483e 9962 643c 1f0d 27be fdab 183c
000001c0: 42dd 4c3e 29dc 7abc 7024 34be b6ff f53c
000001d0: b845 26be 062e 5ebd 713b b33d ca0b dfbd
000001e0: d14f 4cbe 9a5c 90bc 1601 d13d e0b5 fdbd
000001f0: 74fd a63d 1a76 1f3e d9ff c8bd d5aa e43d
00000200: 0419 463e d8a8 11be 02e5 06be c46b 9fbd
00000210: 50ca d43d fb11 f03d b341 583e 40d6 cfbd
00000220: 170b 36be 8b80 94bd d6be 4d3b ffba edbc
00000230: a68e 673d c1d4 413e cdc2 513d f6ac 503e
00000240: 7b53 e13d c233 04be bcbf 04be fdbe 80bd
00000250: afe8 4dbe 3847 f13c 56a0 79bd a2cc 653e
00000260: b63e 693e 885e 3c3e ab31 263e 5808 583e
00000270: c36e 8b3d de8c 5f3e 6e2c 5538 32fe 063e
00000280: 963e 9f3d 69b5 783e 0b21 263e 99a3 213e
00000290: 97c9 943e bff6 323c 617e 7b3e 7ac5 843d
000002a0: a5e7 0d3d 383e bb3d 2325 923e 1c46 2c3b
000002b0: ef85 4b3e 52b9 4c3e 2ad3 853e 7685 fb3d
000002c0: b412 ed3d c3bf 423e 82b4 163e 403b c93c
000002d0: 1e15 0e3e 00e8 053e 17c2 943d b93b 633d
000002e0: 681d be3d 64e7 94bd 07a3 ee3d e8c7 d93d
000002f0: 2777 113c e39b 113e 734c 693d 60c1 493d
00000300: cb8f cebb f6ae 53bd fda0 c83d ddda 9e3d
00000310: 63ba 243e 4cc7 5f3e eb50 be3d d588 233c
0.08468127 0.020683628 0.06719281 0.08448211 0.081370376 0.2231789 -0.036288388 0.13283671
0.004094587 0.0115404 0.00087305624 0.2087936 0.11087813 -0.018197358 0.080866955 0.11076228
0.2212179 0.077259295 0.074420355 -0.05354517 0.15177892 0.141586 -0.023469964 -0.0009392423
0.20934471 0.16468844 0.16508295 -0.0073560714 0.08558492 0.16244318 0.030268054 0.21664
-0.042617925 0.14568767 0.07321462 0.12472143 0.012811524 0.17160143 0.23347622 0.069533184
0.06390835 0.16239165 0.12607317 0.10743502 0.19151825 -0.055714544 0.13926208 0.043914653
0.14143863 0.1731811 -0.103686 -0.020405527 -0.05358969 -0.011239027 -0.06660638 0.10279227
-0.13667087 0.23376748 0.05654928 0.06069284 0.029734453 0.027342936 0.034164373 0.1807161
0.06421764 -0.06041404 0.018465651 0.015726648 -0.023143848 0.16183117 0.03878645 -0.113419145
-0.036523722 0.18806396 0.058101945 0.21164396 0.17738414 -0.02184452 0.13538799 0.13499616
0.07588777 0.064792655 0.18856202 0.010210635 -0.043822628 -0.058483098 0.04503637 -0.0065599824
0.034596916 -0.052465037 0.15316069 0.052591007 -0.030551983 -0.028441709 -0.08986201 0.12284057
0.15108818 0.134899 0.19880779 0.025862759 0.0035634488 -0.19048966 0.2003666 0.12821996
0.058210667 -0.03645764 0.06746782 0.010827205 0.19625542 0.013939523 -0.16313599 0.009318349
0.20006278 -0.015311279 -0.17592025 0.030029159 -0.16237533 -0.05424311 0.08751572 -0.108909205
-0.19952323 -0.01762228 0.10205285 -0.123882055 0.08153811 0.15572396 -0.09814424 0.11165396
0.1934548 -0.14224565 -0.13173297 -0.077842265 0.103901505 0.117221795 0.21118812 -0.10148287
-0.17777668 -0.0725108 0.0031394265 -0.02901983 0.056532525 0.18928815 0.051211167 0.2037848
0.11002251 -0.12910369 -0.12963766 -0.06286428 -0.20108293 0.029452905 -0.060943924 0.22441342
0.22777829 0.18395436 0.16229884 0.21096933 0.068082355 0.2183108 5.0824536e-05 0.13182905
0.07775609 0.24287952 0.16223542 0.15785064 0.2906005 0.010923087 0.24559928 0.06482978
0.03464474 0.09142727 0.28543958 0.0026286906 0.1987531 0.19992569 0.26137668 0.12281315
0.11575833 0.19018464 0.14717296 0.024564385 0.13875243 0.13076782 0.07263582 0.055476878
0.092829525 -0.07270697 0.11652189 0.10633832 0.008878506 0.14219622 0.056957673 0.049256682
-0.0063037626 -0.051680528 0.09796331 0.077565886 0.16086726 0.2185337 0.09292778 0.009981354
